models/77-accuracy.pt (torch, 181411 bytes, 20 tensors)

conv1.weight f4 [10, 1, 3, 3]
-0.068809785 -0.13014993 -0.14070012 0.0270664 0.06752192 -0.00906131 0.12815568 -0.1511554
-0.22440194 0.0935677 -0.0010074243 0.26010853 0.098019294 0.35129917 0.17611904 -0.3652229
-0.22757325 -0.23183 -0.31775331 -0.15282443 0.09662739 0.13269229 -0.067534246 0.32938337
-0.35390577 0.18682049 0.046367627 -0.1414038 0.16210711 0.11765807 -0.34283313 0.20204663
0.1741679 -0.00052411144 0.21581651 0.21962939 -0.11219878 0.19702108 -0.16182928 -0.3487853
0.3693315 -0.14581934 -0.10440654 -0.06703698 -0.14021462 0.030013705 0.083393626 -0.028388297
0.29380625 -0.18701743 -0.38364425 0.24431297 -0.08214344 0.20332433 0.40060094 0.116396755
0.09909597 -0.003079894 -0.09047159 -0.018747093 -0.099951185 -0.352178 -0.05813326 0.08478658
-0.11152006 0.25517955 -0.30516326 -0.015733693 -0.11763704 0.37902614 0.3286738 0.0035000693
0.18381919 0.26042202 0.26145837 -0.18332654 0.010789593 0.10195984 -0.025932489 -0.12760153
-0.45558932 0.13398525 0.19645767 -0.24457875 0.03483342 0.056343835 -0.32478017 -0.15089454
0.05296603 0.12722054
00000000: 25ec 8cbd 0646 05be b113 10be 5bba dd3c
00000010: ef48 8a3d e475 14bc 3e3b 033e 7bc8 1abe
00000020: 9fc9 65be 6ca0 bf3d 8d0b 84ba f22c 853e
00000030: 57be c83d 7cdd b33e 8d58 343e 7ffe babe
00000040: f608 69be d864 6dbe 90b0 a2be 027e 1cbe
00000050: 95e4 c53d 7de0 073e 654f 8abd f0a4 a83e
00000060: 2333 b5be df4d 3f3e fbeb 3d3d 28cc 10be
00000070: 68ff 253e b7f6 f03d d387 afbe 50e5 4e3e
00000080: 1259 323e 8664 09ba 01ff 5c3e 87e6 603e
00000090: 79c8 e5bd e5bf 493e 93b6 25be fd93 b2be
000000a0: 0519 bd3e aa51 15be 19d3 d5bd af4a 89bd
000000b0: 6c94 0fbe 4ddf f53c 47ca aa3d 938e e8bc
000000c0: c66d 963e 7f81 3fbe 056d c4be 2e2d 7a3e
000000d0: d23a a8bd 4134 503e 911b cd3e 6c61 ee3d
000000e0: d4f2 ca3d 0cd8 49bb 2b49 b9bd 8193 99bc
000000f0: 35b3 ccbd ad50 b4be 241d 6ebd 96a4 ad3d
00000100: a164 e4bd e5a6 823e 5c3e 9cbe f2e3 80bc
00000110: b0eb f0bd b70f c23e ef47 a83e 6b61 653b
00000120: 193b 3c3e 0956 853e dfdd 853e f4b9 3bbe
00000130: d5c6 303c 52d0 d03d 5f70 d4bc faa9 02be
00000140: 0143 e9be 6e33 093e 332c 493e da72 7abe
00000150: 7dad 0e3d cbc8 663d 9649 a6be 1984 1abe
00000160: e8f2 583d 1a46 023e

conv1.bias f4 [10]
0.12832242 0.04869273 0.16824251 -0.18094198 -0.13879187 0.15800287 0.061599873 -0.23299567
-0.18784557 0.03809364
00000000: f466 033e 0772 473d c447 2c3e db48 39be
00000010: 751f 0ebe 81cb 213e 2650 7c3d 6b96 6ebe
00000020: 975a 40be 1408 1c3d

conv2.weight f4 [10, 10, 3, 3]
-0.028354615 0.011510004 0.055371106 -0.09420068 0.074850775 0.038379855 0.039193835 0.06403077
-0.004876664 -0.031652905 0.20115529 0.039263498 -0.070027635 0.095487855 0.17451155 -0.26810816
-0.117563084 0.028082773 0.07192199 0.1654453 0.11195452 -0.09639754 -0.1260168 0.04234179
-0.037270874 -0.0884199 -0.05409728 -0.06655016 0.05040723 -0.009226119 0.033107143 -0.086248405
0.056185342 0.061635725 -0.045405723 -0.036394272 0.013272983 -0.026617939 0.001524644 0.023694193
0.02790429 0.04485071 -0.10085545 -0.0018774753 0.034403138 -0.08394947 0.06528805 0.05530839
0.044448398 -0.027942467 -0.12264322 0.06199326 0.03144439 0.05554303 0.12358212 0.11734874
-0.013639918 0.0041060885 5.70478e-05 0.121698104 -0.17399073 -0.24219349 0.027051682 -0.11285552
0.0026477256 0.10120125 0.046216857 -0.021750117 -0.12559329 0.07196071 0.046318147 -0.07728521
-0.078733094 -0.024631297 -0.052444022 -0.18086393 -0.12280554 -0.1165215 0.12057556 0.11108115
-0.1639151 -0.11880455 -0.029116085 -0.025744684 -0.09380306 0.13588908 -0.0025998026 -0.07288477
-0.039298378 -0.14162411 0.12057677 0.01950278 0.10624746 -0.08206553 -0.010899808 -0.010184546
-0.08020381 0.028056713 0.16612084 0.06510602 0.06145431 0.06465654 -0.062648356 0.013300648
0.0010283531 -0.013752815 0.0043067704 -0.1569055 -0.12881723 0.075985454 0.016617151 -0.17698492
0.036017686 -0.23536186 0.020604545 -0.10709894 -0.12310888 0.08582014 -0.20196766 0.16057938
-0.10656347 -0.20857446 -0.07993447 -0.0072597754 -0.0809932 -0.2732797 0.13335834 -0.17505774
0.055839546 -0.12504247 -0.010695381 0.020046368 -0.02386353 0.19534968 0.09478043 -0.11126346
-0.02222606 0.042412702 0.025905354 0.012453583 0.0334312 -0.124233924 -0.040724818 0.07690176
-0.08091207 0.023223111 -0.018730588 0.023661023 0.009249907 0.090483315 -0.062495723 0.014541101
-0.105747536 -0.16334695 0.10459026 0.41133776 -0.014700632 0.19519106 0.21379216 0.13429989
-0.24716681 -0.32115528 -0.06793266 0.04023884 -0.020442238 0.11625858 0.052370902 0.12218587
0.16684084 0.10758268 0.07755759 -0.23420757 -0.02046401 -0.020819018 -0.019491382 0.084808215
-0.052781854 -0.055240437 0.011001525 -0.07328505 -0.009947485 -0.24662073 -0.14343327 0.13491872
-0.115642525 -0.11199574 0.06064119 -0.023889147 0.15258886 -0.057310198 0.05291357 0.05787947
-0.08597359 0.05894737 -0.0028178606 -0.017698694 0.088603266 -0.0643981 0.06484403 -0.042388555
0.032790672 0.1528571 0.068082325 0.0828688 0.026905788 -0.016475052 0.036268163 -0.032810103
-0.06446816 0.078576244 -0.02140817 -0.032995082 -0.10768554 0.026869686 0.05587303 -0.007962738
-0.19475122 0.28182036 0.20195854 -0.27503484 0.10327373 0.07310288 -0.122356124 0.23950191
0.047775894 0.0963957 -0.16257222 -0.07227015 -0.077326946 -0.075347714 0.024671135 0.03154571
-0.12919368 0.05904524 0.08436978 -0.012227577 -0.18069148 0.16866244 0.13321878 -0.088496126
0.08997443 -0.027454114 -0.15561758 0.14539367 0.09058619 0.13395652 0.085770294 0.042500082
0.1268281 -0.0061781514 0.09857335 -0.009141678 -0.21456133 0.17472665 -0.13572474 -0.35002977
00000000: f047 e8bc 7594 3c3c d0cc 623d 49ec c0bd
00000010: 5d4b 993d 3234 1d3d b789 203d 9022 833d
00000020: 6ccc 9fbb 7aa6 01bd a7fb 4d3e c3d2 203d
00000030: a66a 8fbd 238f c33d 28b3 323e 7945 89be
00000040: eac4 f0bd d80d e63c d64b 933d 7e6a 293e
00000050: 6948 e53d 136c c5bd 8c0a 01be 966e 2d3d
00000060: 58a9 18bd 7e15 b5bd 1c95 5dbd 734b 88bd
00000070: d077 4e3d 2629 17bc 5b9b 073d 01a3 b0bd
00000080: 9a22 663d be75 7c3d 5afb 39bd 2912 15bd
00000090: ed76 593c dd0d dabc 90d6 c73a 531a c23c
000000a0: 8a97 e43c 61b5 373d 4d8d cebd 9e15 f6ba
000000b0: 4eea 0c3d b3ed abbd beb5 853d 0d8b 623d
000000c0: 860f 363d 9ae7 e4bc 5e2c fbbd a5ec 7d3d
000000d0: d5cb 003d 1781 633d 9f18 fd3d 8954 f03d
000000e0: f679 5fbc 5e8c 863b 9c46 6f38 db3c f93d
000000f0: a02a 32be 9201 78be 7d9b dd3c cb20 e7bd
00000100: 7785 2d3b 9a42 cf3d e34d 3d3d 4d2d b2bc
00000110: 879b 00be 2360 933d 19b8 3d3d b547 9ebd
00000120: d13e a1bd 93c7 c9bc 8bcf 56bd 6534 39be
00000130: 7981 fbbd d3a2 eebd 52f0 f63d 847e e33d
00000140: 5cd9 27be cd4f f3bd db84 eebc 84e6 d2bc
00000150: d21b c0bd 8226 0b3e 7361 2abb 9c44 95bd
00000160: 56f7 20bd e905 11be f4f0 f63d 4bc4 9f3c
00000170: 4598 d93d f911 a8bd 1c95 32bc 15dd 26bc
00000180: e541 a4bd 31d7 e53c 951b 2a3e 4e56 853d
00000190: 84b7 7b3d a66a 843d c84d 80bd f6ea 593c
000001a0: cec9 863a 7d53 61bc cf1f 8d3b d6ab 20be
000001b0: aae8 03be 439e 9b3d b120 883c 893b 35be
000001c0: 4887 133d b302 71be ddca a83c b056 dbbd
000001d0: 8220 fcbd 78c2 af3d 9cd0 4ebe ec6e 243e
000001e0: f33d dabd 8b94 55be afb4 a3bd 69e3 edbb
000001f0: c3df a5bd 51eb 8bbe 178f 083e 5642 33be
00000200: 02b8 643d 220b 00be ae3b 2fbc 4838 a43c
00000210: 737d c3bc bf09 483e 3e1c c23d 19de e3bd
00000220: 6d13 b6bc f1b8 2d3d 7737 d43c 1d0a 4c3c
00000230: 27ef 083d 5b6e febd 11cf 26bd ac7e 9d3d
00000240: 3ab5 a5bd 653e be3c e470 99bc c3d4 c13c
00000250: ec8c 173c 514f b93d 84fb 7fbd cc3d 6e3c
00000260: 2a92 d8bd 6c44 27be 6b33 d63d dd9a d23e
00000270: ebda 70bc 2ae0 473e 55ec 5a3e e985 093e
00000280: 4c19 7dbe 776e a4be 4720 8bbd 7bd1 243d
00000290: 7b76 a7bc fa18 ee3d df82 563d 963c fa3d
000002a0: 53d8 2a3e 4f54 dc3d 84d6 9e3d 1cd4 6fbe
000002b0: 24a4 a7bc a58c aabc 64ac 9fbc eeaf ad3d
000002c0: c931 58bd cc43 62bd be3f 343c 7916 96bd
000002d0: c7fa 22bc 258a 7cbe 2ce0 12be 2228 0a3e
000002e0: fdd5 ecbd 065e e5bd e562 783d 2cb3 c3bc
000002f0: 4140 1c3e 19be 6abd e6bb 583d 0613 6d3d
00000300: ec12 b0bd cc72 713d dbab 38bb dafc 90bc
00000310: a175 b53d 27e3 83bd f2cc 843d 9f9f 2dbd
00000320: 834f 063d 9286 1c3e bf6e 8b3d 1eb7 a93d
00000330: 8769 dc3c b0f6 86bc ed8d 143d e363 06bd
00000340: e207 84bd 95ec a03d 3060 afbc da25 07bd
00000350: 3d8a dcbd d11d dc3c 1edb 643d 2576 02bc
00000360: dd6c 47be c24a 903e 38ce 4e3e 5ed1 8cbe
00000370: 2d81 d33d f6b6 953d d995 fabd fd3f 753e
00000380: a8b0 433d 1c6b c53d 5579 26be 5f02 94bd
00000390: 975d 9ebd e74f 9abd 1f1b ca3c 1336 013d
000003a0: 594b 04be 6cd9 713d 10ca ac3d 2d56 48bc
000003b0: 3007 39be d9b5 2c3e 816a 083e 753d b5bd
000003c0: 8444 b83d 73e7 e0bc 375a 1fbe 14e2 143e
000003d0: 4185 b93d e62b 093e 56a8 af3d 9114 2e3d
000003e0: 3adf 013e 1772 cabb d3e0 c93d fac6 15bc
000003f0: f7b5 5bbe 8beb 323e 6dfb 0abe 1a37 b3be

conv2.bias f4 [10]
-0.05356982 -0.057931267 -0.088829696 0.04571687 -0.044610176 0.084247895 -0.038289048 0.004933781
-0.018550545 -0.018079568
00000000: 076c 5bbd 5649 6dbd 58ec b5bd 9d41 3b3d
00000010: 29b9 36bd 298a ac3d fad4 1cbd 8eab a13b
00000020: 50f7 97bc 9a1b 94bc

conv3.weight f4 [10, 10, 3, 3]
-0.022818547 0.09365433 -0.049286753 0.111452974 -0.04756113 -0.1273924 0.00013476299 -0.17446929
0.01687877 -0.11944206 0.069871925 0.0758551 -0.0279522 0.013784603 -0.08182545 -0.038950708
-0.066122435 -0.054659605 -0.16613027 0.0006614532 0.098977104 -0.04099711 0.11418956 -0.08620837
0.10146711 -0.17370722 0.021217179 -0.039050918 0.05419959 -0.100445405 0.033139654 -0.092563696
0.11596158 0.1084907 0.08055377 0.060079146 -0.033431873 -0.025720606 -0.07335985 0.02469255
-0.023053914 -0.011750874 0.16427076 0.060970236 0.03356122 0.054624572 0.03362152 -0.07786462
-0.15410137 0.048395462 0.060553633 -0.026315507 0.0047564865 -0.03211021 -0.05786766 0.062303517
-0.07198228 -0.07111205 -0.0310339 0.0075703175 0.023566514 -0.05638782 0.047769673 -0.015079968
0.008032943 0.02359448 0.029796747 0.004490405 0.10791013 0.043037537 0.10890937 0.051225986
-0.028248416 -0.028372128 -0.1175164 0.052978683 -9.612984e-05 0.008112115 0.04993276 0.12814048
-0.0022198493 0.059315924 -0.003257545 -0.060210586 0.00765247 -0.0065548792 0.028038273 0.07547033
-0.030315662 0.07386537 0.16579129 0.052948296 0.054372914 0.15602183 -0.04675168 0.0049896375
0.06772541 0.09865292 -0.07454955 -0.06220798 -0.23276989 -0.114415765 -0.038907863 0.0106187565
0.014755483 -0.22163023 0.00345617 -0.09278367 0.05684466 -0.061937563 0.09608244 0.035912935
0.0541353 -0.081361435 0.20777248 -0.08964507 0.027067887 -0.030018399 0.061042376 -0.052721582
-0.05648138 0.012798746 -0.047780264 0.08366562 0.005355912 0.06367119 0.0907387 -0.031773515
-0.12748063 -0.024127075 -0.038210806 -0.02699737 0.020234488 -0.016916625 0.049523268 0.025554474
-0.074259385 0.006075223 -0.013586364 -0.07975967 -0.103723355 -0.017265342 -0.09180989 -0.1176961
-0.093024224 -0.07346496 -0.07521752 -0.039940186 -0.06627526 -0.088153824 -0.018811751 0.04100733
0.0048150066 0.12472853 0.1293429 0.010850942 -0.065047614 0.03424387 -0.040439125 0.09386997
0.055527557 -0.08147466 0.016250258 0.0056391316 0.031287435 -0.007160354 0.016572572 0.10467818
-0.007539608 0.067476794 -0.02211437 -0.0054916786 0.051574066 0.07274791 -0.032704204 0.010470364
0.102864616 -0.031403523 0.0769871 0.11969521 -0.08110582 0.0038396255 -0.0584191 0.09531219
-0.031934872 0.033376396 -0.01701817 0.032491136 -0.07817438 -0.1316731 -0.20067681 -0.18050742
-0.022590414 0.038243875 -0.23254178 -0.06076418 -0.076337226 -0.05871113 -0.095152564 -0.061031826
-0.05674559 0.09037163 0.06768176 0.15836701 0.026387338 -0.19372688 -0.28067032 0.088953935
0.06352015 0.025050579 0.0055234763 -0.03220288 0.011656728 -0.055808667 -0.036933944 -0.054527562
-0.08223488 0.012326189 -0.13193834 0.0040950873 0.04186316 -0.14683695 0.010564794 0.13853246
0.16932024 -0.0039474987 0.084565125 0.16434884 -0.10784028 0.07432345 -0.043192923 -0.13596427
-0.16036087 -0.115250126 -0.05049012 -0.08533222 -0.10540444 -0.10909132 0.009377114 0.046907496
-0.10096149 0.15608859 0.08929759 0.01533371 0.11674845 -0.115043595 -0.084287114 -0.18305646
-0.07105437 0.06805913 0.029667083 0.01767873 -0.027049575 -0.04181886 -0.03103033 0.049155924
00000000: f6ed babc d7cd bf3d e8e0 49bd 7541 e43d
00000010: 76cf 42bd 2773 02be 2a4f 0d39 14a8 32be
00000020: 5945 8a3c 0a9e f4bd 0319 8f3d eb59 9b3d
00000030: 03fc e4bc d1d8 613c 1a94 a7bd c78a 1fbd
00000040: 336b 87bd c0e2 5fbd 0e1e 2abe 5f65 2d3a
00000050: 82b4 ca3d 96ec 27bd 37dc e93d 048e b0bd
00000060: fdcd cf3d 4ee0 31be a6cf ad3c dbf3 1fbd
00000070: 6400 5e3d 52b6 cdbd 72bd 073d 0992 bdbd
00000080: 447d ed3d 5f30 de3d 60f9 a43d 8d15 763d
00000090: dcef 08bd 05b4 d2bc b03d 96bd 0848 ca3c
000000a0: 90db bcbc bd86 40bc 9836 283e edbb 793d
000000b0: 7d77 093d 04be 5f3d b8b6 093d 7c77 9fbd
000000c0: c0cc 1dbe 523a 463d 1607 783d 9e93 d7bc
000000d0: 4ddc 9b3b ff85 03bd a406 6dbd f931 7f3d
000000e0: 726b 93bd 32a3 91bd ce3a febc 6d10 f83b
000000f0: 900e c13c eaf6 66bd 22aa 433d f811 77bc
00000100: 9b9c 033c 3649 c13c 4f18 f43c 3f24 933b
00000110: fcff dc3d 2148 303d e00b df3d 57d2 513d
00000120: 3969 e7bc aa6c e8bc 70ac f0bd 2d00 593d
00000130: 5199 c9b8 ade8 043c 4b86 4c3d 4237 033e
00000140: e47a 11bb 41f5 723d 897c 55bb 609f 76bd
00000150: 92c1 fa3b 50ca d6bb 85b0 e53c 3090 9a3d
00000160: 8d58 f8bc ba46 973d 31c5 293e 50e0 583d
00000170: 22b6 5e3d 30c4 1f3e b17e 3fbd 1d80 a33b
00000180: 9fb3 8a3d 8b0a ca3d 6fad 98bd cbcd 7ebd
00000190: 3b5b 6ebe d052 eabd da5d 1fbd 4bfa 2d3c
000001a0: fbc0 713c 09f3 62be e980 623b 5d05 bebd
000001b0: f2d5 683d 3eb2 7dbd dfc6 c43d 7119 133d
000001c0: fabc 5d3d d3a0 a6bd 4fc2 543e d697 b7bd
000001d0: 79bd dd3c 25e9 f5bc 9207 7a3d 96f2 57bd
000001e0: 0559 67bd d5b1 513c 3db5 43bd e158 ab3d
000001f0: a580 af3b 0a66 823d 36d5 b93d f224 02bd
00000200: 488a 02be 25a6 c5bc ef82 1cbd 9729 ddbc
00000210: ccc2 a53c bc94 8abc e9d8 4a3d 9e57 d13c
00000220: 4e15 98bd aa12 c73b 5799 5ebc 0a59 a3bd
00000230: e96c d4bd 0c70 8dbc d306 bcbd a70a f1bd
00000240: 7c83 bebd cc74 96bd a50b 9abd 5298 23bd
00000250: 53bb 87bd fe89 b4bd 1a1b 9abc 4df7 273d
00000260: 34c7 9d3b ac71 ff3d 7772 043e 26c8 313c
00000270: af37 85bd 4d43 0c3d 7fa3 25bd e63e c03d
00000280: dd70 633d 30dc a6bd 431f 853c 77c8 b83b
00000290: 4127 003d 67a1 eabb 34c3 873c 8361 d63d
000002a0: d10e f7bb 4631 8a3d 3229 b5bc 8af3 b3bb
000002b0: 543f 533d dbfc 943d d8f4 05bd e48b 2b3c
000002c0: afaa d23d fba0 00bd 6aab 9d3d c322 f53d
000002d0: cf1a a6bd 3aa2 7b3b de48 6fbd 0a33 c33d
000002e0: 24ce 02bd b0b5 083d b069 8bbc 6d15 053d
000002f0: e419 a0bd 50d5 06be 397e 4dbe f0d6 38be
00000300: 880f b9bc 9ca5 1c3d 6f1f 6ebe dce3 78bd
00000310: b156 9cbd 157b 70bd 59df c2bd 82fc 79bd
00000320: 106e 68bd c314 b93d bc9c 8a3d f62a 223e
00000330: 422a d83c 5760 46be 05b4 8fbe 7b2d b63d
00000340: da16 823d df36 cd3c 47fe b43b 2be7 03bd
00000350: dcfb 3e3c a197 64bd 0c48 17bd 4b58 5fbd
00000360: c36a a8bd c9f3 493c d81a 07be 1530 863b
00000370: b478 2b3d 6d5c 16be f517 2d3c 74db 0d3e
00000380: 4962 2d3e 055a 81bb 7b30 ad3d 104b 283e
00000390: 5ddb dcbd e536 983d 10eb 30bd 383a 0bbe
000003a0: a435 24be 4208 ecbd bace 4ebd a9c2 aebd
000003b0: 48de d7bd 456b dfbd 77a2 193c 1322 403d
000003c0: e6c4 cebd b0d5 1f3e a8e1 b63d 3e3a 7b3c
000003d0: d019 ef3d fa9b ebbd b99e acbd 2773 3bbe
000003e0: f484 91bd 9662 8b3d 6208 f33c fcd2 903c
000003f0: 1297 ddbc 414a 2bbd 5233 febc b957 493d

conv3.bias f4 [10]
0.079622194 -0.0043676486 -0.00024367547 0.050735347 0.098332696 0.061920337 0.044573873 -0.05533385
-0.010740003 0.057520922
00000000: f610 a33d 7e1e 8fbb 2383 7fb9 decf 4f3d
00000010: a762 c93d 2ea0 7d3d 1893 363d bfa5 62bd
00000020: d6f6 2fbc 0f9b 6b3d

conv4.weight f4 [10, 10, 3, 3]
0.09414173 0.019137431 0.07614229 0.003233363 0.07332359 0.11091405 -0.030893901 -0.061085194
0.0072985822 -0.036175665 -0.07989894 0.032435615 0.061624967 -0.035180815 -0.014877885 -0.010711981
-0.073067315 0.09114924 0.018732728 -0.11279191 0.01598282 0.02751502 -0.021571605 -0.2056313
0.07105757 0.07555017 -0.04876882 0.08510011 0.14030805 0.041730836 -0.09051098 0.08886798
-0.002577096 -0.020942228 -0.13042445 -0.083850585 -0.057173613 0.04188364 -0.102311894 -0.041313086
0.11593384 0.12076063 0.044822272 0.029649232 0.110344514 0.012602646 0.0789902 -0.005373471
0.0760245 -0.03506923 0.119956344 0.050333854 0.02339292 0.061661974 -0.16968457 0.00491637
-0.10048496 -0.01877722 -0.15920639 0.036086477 0.08757618 -0.085342936 -0.14809982 -0.0051595266
-0.017363517 -0.17907478 -0.0133422995 0.077241145 -0.061043423 -0.0012308393 0.043447185 0.040389266
0.094799265 0.1121878 0.050875306 -0.051173184 0.12688753 0.0076122866 -0.2024937 -0.1066484
-0.041367445 -0.132068 0.024653692 0.038064457 0.107151 -0.05880263 -0.055243697 0.18778707
0.07102987 -0.0041748574 -0.006067735 -0.04206573 0.13778737 -0.042484254 -0.1816295 0.09703311
0.033197068 0.0005183547 0.07102966 0.0068156077 -0.15043938 0.010614926 0.053500205 -0.12151676
-0.046523944 -0.008180218 0.06437989 0.029172003 -0.09447749 0.0644841 0.01942738 0.05086221
0.116140924 -0.14520052 -0.043370724 0.14658903 -0.09569108 -0.09538378 0.13413951 0.002778215
0.08756451 -0.04961213 0.10605554 0.03837183 -0.057950385 0.01909007 0.08163756 -0.03044906
0.014500581 0.06021244 0.026971813 0.0011934214 0.02669859 0.01188199 0.09766895 -0.13662772
-0.10796423 0.063815296 0.128663 -0.0729449 0.005326474 0.16579632 -0.07781906 0.051331013
0.060465615 -0.035725553 -0.022859389 0.090924054 -0.012720543 -0.03810264 -0.0023233565 0.055989753
0.086499445 -0.11418625 -0.07550927 -0.053204246 0.0485908 -0.14666295 -0.0970318 0.07059163
0.013555718 -0.10067123 -0.0049249646 -0.025649153 -0.033122472 -0.06805364 0.100558914 -0.09359672
-0.06879494 0.0021027315 -0.15812714 0.18324415 -0.0016275999 0.07922135 -0.09997982 0.13509697
0.059069127 -0.009144721 0.27550715 0.0320323 0.10339558 0.081129566 0.06844445 -0.103084
-0.031169964 -0.009939703 0.0062713297 0.04624876 -0.0129556805 -0.11741324 -0.0020085096 -0.03674114
0.008906786 0.03624059 0.097860284 0.053108353 0.013583485 -0.10393977 0.11612823 0.04791205
0.20846803 0.12807564 0.20663266 0.13210809 0.29482916 0.0059605497 0.11314254 -0.092998214
-0.019158045 -0.07003998 -0.0032425195 -0.032504063 -0.06315965 -0.09871082 -0.02144002 0.09050216
0.003101601 -0.043646503 -0.029166237 0.09192188 -0.114800334 -0.030847348 -0.03985383 0.021541573
0.095206365 0.034128573 -0.09418329 -0.039692882 -0.085822426 -0.07560023 -0.048802152 -0.09924414
-0.0395016 -0.15821123 -0.008118066 0.10148681 -0.015820455 -0.0834842 -0.09894107 0.090910405
0.013642026 0.026968315 -0.076773904 -0.04453018 -0.02235421 0.0888007 0.02978015 -0.06771333
-0.041251637 -0.0508588 0.014614599 0.049787235 -0.05468885 -0.015864817 -0.21807617 0.03390555
00000000: 61cd c03d 1ac6 9c3c 7df0 9b3d d4e6 533b
00000010: ae2a 963d e826 e33d 3515 fdbc 7834 7abd
00000020: f228 ef3b ef2c 14bd 0ea2 a3bd 35db 043d
00000030: 766a 7c3d c219 10bd 5fc2 73bc 4e81 2fbc
00000040: 51a4 95bd 74ac ba3d 6175 993c 72ff e6bd
00000050: 67ee 823c 2e67 e13c efb6 b0bc 0391 52be
00000060: a286 913d 0cba 9a3d d0c1 47bd f748 ae3d
00000070: eaac 0f3e f4ed 2a3d d25d b9bd 6a00 b63d
00000080: 7fe4 28bb 098f abbc fd8d 05be dbb9 abbd
00000090: e12e 6abd 2e8e 2b3d e688 d1bd e937 29bd
000000a0: b96e ed3d 5951 f73d 8f97 373d f2e2 f23c
000000b0: 4efc e13d 547b 4e3c 9dc5 a13d f113 b0bb
000000c0: bcb2 9b3d c1a4 0fbd acab f53d df2a 4e3d
000000d0: 82a2 bf3c 4491 7c3d cbc1 2dbe 8019 a13b
000000e0: 0fcb cdbd afd2 99bc 0007 23be 6acf 133d
000000f0: 245b b33d 47c8 aebd 7ba7 17be 3f11 a9bb
00000100: ef3d 8ebc 615f 37be a999 5abc 9b30 9e3d
00000110: ab08 7abd 1d54 a1ba adf5 313d 376f 253d
00000120: 1e26 c23d b8c2 e53d a062 503d f99a 51bd
00000130: ceee 013e 7d70 f93b 825a 4fbe 7a6a dabd
00000140: e970 29bd d53c 07be 8af6 c93c 7ae9 1b3d
00000150: fc71 db3d 07db 70bd 3747 62bd 414b 403e
00000160: 1c78 913d 3ecd 88bb dad3 c6bb 1d4d 2cbd
00000170: 2218 0d3e f803 2ebd 15fd 39be 4cb9 c63d
00000180: a6f9 073d 32e2 073a 0078 913d 7655 df3b
00000190: c80c 1abe 3aea 2d3c 0823 5b3d c7dd f8bd
000001a0: e48f 3ebd 5206 06bc 9bd9 833d 20fa ee3c
000001b0: 6a7d c1bd 3d10 843d 2b26 9f3c e554 503d
000001c0: 4bdb ed3d 72af 14be 80a5 31bd 6f1b 163e
000001d0: aff9 c3bd 9258 c3bd de5b 093e b712 363b
000001e0: 0655 b33d 1736 4bbd a633 d93d c82b 1d3d
000001f0: 625d 6dbd c762 9c3c 9831 a73d 4f70 f9bc
00000200: d893 6d3c 52a1 763d fef3 dc3c 946c 9c3a
00000210: 00b7 da3c aeac 423c a906 c83d 23e8 0bbe
00000220: 5a1c ddbd 98b1 823d 3cc0 033e 2364 95bd
00000230: b489 ae3b 83c6 293e 995f 9fbd 7840 523d
00000240: cbaa 773d f554 12bd 9d43 bbbc 6436 ba3d
00000250: d369 50bc 8411 1cbd 7443 18bb 8355 653d
00000260: 9f26 b13d 7bda e9bd 9ba4 9abd b2ec 59bd
00000270: 2607 473d d02e 16be 9cb8 c6bd 5892 903d
00000280: cd18 5e3c b82c cebd 9961 a1bb 2c1e d2bc
00000290: 6eab 07bd b55f 8bbd d5f1 cd3d a3af bfbd
000002a0: 5de4 8cbd fbcd 093b 15ec 21be 5ba4 3b3e
000002b0: 3155 d5ba ce3e a23d 38c2 ccbd dc56 0a3e
000002c0: 78f2 713d bdd3 15bc 460f 8d3e 4d34 033d
000002d0: 10c1 d33d 4227 a63d 9b2c 8c3d b41d d3bd
000002e0: 2758 ffbc 23da 22bc ba7f cd3b 576f 3d3d
000002f0: 1044 54bc 5a76 f0bd 33a1 03bb e17d 16bd
00000300: c5ed 113c 0371 143d f96a c83d 2588 593d
00000310: 448d 5e3c 60de d4bd a3d4 ed3d 6d3f 443d
00000320: a578 553e 4326 033e 8397 533e 5847 073e
00000330: d9f3 963e b750 c33b 47b7 e73d d975 bebd
00000340: 55f1 9cbc 1f71 8fbd 7380 54bb fb22 05bd
00000350: d959 81bd e628 cabd fba2 afbc 3259 b93d
00000360: 3b44 4b3b adc6 32bd 08ee eebc 8a41 bc3d
00000370: 701c ebbd 94b3 fcbc c53d 23bd f477 b03c
00000380: 8efb c23d 67ca 0b3d 2be3 c0bd 0195 22bd
00000390: abc3 afbd 4bd4 9abd c4e4 47bd 8340 cbbd
000003a0: 6ecc 21bd 2002 22be a301 05bc 51d8 cf3d
000003b0: e699 81bc c4f9 aabd 9ea1 cabd 3c2f ba3d
000003c0: ce82 5f3c a8ec dc3c a33b 9dbd 4765 36bd
000003d0: 2d20 b7bc 24dd b53d 80f5 f33c 49ad 8abd
000003e0: 7af7 28bd 5151 50bd 1272 6f3c b3ed 4b3d
000003f0: 6a01 60bd eff6 81bc 5c4f 5fbe 8ce0 0a3d

conv4.bias f4 [10]
-0.0025357895 0.0017796804 0.00080372393 0.0003988953 -0.0016901565 -0.00031300122 -0.00041774072 -0.0030481277
0.0018670079 -0.0009663825
00000000: 7d2f 26bb 2a44 e93a 00b1 523a d222 d139
00000010: 3e88 ddba 501a a4b9 3604 dbb9 19c3 47bb
00000020: 64b6 f43a d554 7dba

norm1.weight f4 [10]
1.4734474 1.2975286 1.353679 1.3190873 1.4081291 1.4780915 1.2974051 1.41197
1.4011904 1.5518537
00000000: ed99 bc3f 6b15 a63f 5a45 ad3f dad7 a83f
00000010: 933d b43f 1a32 bd3f 5f11 a63f 6fbb b43f
00000020: 355a b33f 24a3 c63f

norm1.bias f4 [10]
-1.185985 -0.798962 -0.86257005 -0.9058428 -0.9049692 -1.0087725 -0.7787299 -1.1061919
-0.98704195 -1.0888671
00000000: 5bce 97bf c688 4cbf 64d1 5cbf 50e5 67bf
00000010: 10ac 67bf 751f 81bf d85a 47bf b297 8dbf
00000020: c8ae 7cbf ff5f 8bbf

norm1.running_mean f4 [10]
0.056117773 0.07571315 -0.007859363 -0.0072202696 -0.038119435 -0.07646046 -0.021226037 0.06893174
-0.006024913 -0.007648343
00000000: c0db 653d 7f0f 9b3d 8fc4 00bc 0398 ecbb
00000010: 2023 1cbd 4d97 9cbd 3ae2 adbc 162c 8d3d
00000020: a26c c5bb f49e fabb

norm1.running_var f4 [10]
0.00044469238 0.00045462858 0.0004687277 0.00045354935 0.00047282196 0.0004106188 0.00040333986 0.00034434436
0.0005547642 0.0007102255
00000000: 9a25 e939 375b ee39 91bf f539 5dca ed39
00000010: 17e5 f739 5348 d739 5c77 d339 1e89 b439
00000020: 986d 113a 6d2e 3a3a

norm2.weight f4 [10]
1.0 1.0 1.0 1.0 1.0 1.0 1.0 1.0
1.0 1.0
00000000: 0000 803f 0000 803f 0000 803f 0000 803f
00000010: 0000 803f 0000 803f 0000 803f 0000 803f
00000020: 0000 803f 0000 803f

norm2.bias f4 [10]
0.0 0.0 0.0 0.0 0.0 0.0 0.0 0.0
0.0 0.0
00000000: 0000 0000 0000 0000 0000 0000 0000 0000
00000010: 0000 0000 0000 0000 0000 0000 0000 0000
00000020: 0000 0000 0000 0000

norm2.running_mean f4 [10]
0.0 0.0 0.0 0.0 0.0 0.0 0.0 0.0
0.0 0.0
00000000: 0000 0000 0000 0000 0000 0000 0000 0000
00000010: 0000 0000 0000 0000 0000 0000 0000 0000
00000020: 0000 0000 0000 0000

norm2.running_var f4 [10]
1.0 1.0 1.0 1.0 1.0 1.0 1.0 1.0
1.0 1.0
00000000: 0000 803f 0000 803f 0000 803f 0000 803f
00000010: 0000 803f 0000 803f 0000 803f 0000 803f
00000020: 0000 803f 0000 803f

fc1.weight f4 [50, 810]
-0.023791082 -0.05758862 -0.027702905 -0.059450626 -0.010843424 0.03265773 0.030999437 -0.009466443
-0.05349603 0.16867957 -0.03571138 0.092396095 0.037271984 0.04134837 0.021433726 -0.08075464
-0.02132753 0.06854734 0.033788927 0.002217214 0.0307719 0.075803556 0.059421588 0.047950882
-0.050469916 0.0074807745 0.028378183 -0.017160341 0.048248276 0.01835806 -0.00042467212 -0.052171707
-0.041753255 0.048665024 -0.021849204 0.06729097 -0.024733072 -0.095313504 0.032253437 0.01917882
-0.065515816 -0.030910427 0.0030939637 0.10145312 0.09084174 0.091744006 0.001097153 -0.03346643
0.051705044 0.035841543 0.057433814 0.079119876 -0.10232403 0.04029682 0.08655921 0.021866882
-0.012345216 -0.03664713 0.006861345 0.016653297 0.03451987 -0.07148334 -0.007233432 0.05125826
0.020405952 0.04121364 -0.02679557 -0.0930191 0.008112643 0.20495285 0.03223988 0.08777993
0.09506975 -0.018703233 -0.11297523 -0.055435486 -0.0061144894 -0.15179583 -0.14531533 -0.04807306
-0.048151683 0.061387897 0.11562036 0.045450382 0.112574816 -0.012374774 0.020872941 -0.026423182
0.006937541 -0.00085694686 0.0888976 -0.08261016 0.047503326 0.062316217 -0.0024725797 0.028787069
0.06468507 0.032855146 -0.020151308 0.008156229 0.11256232 0.005435139 0.0400486 0.014656693
0.0575749 0.036926795 0.051476054 0.0066239582 0.034895215 0.04136004 0.05554672 -0.09629894
-0.058768053 0.005108335 -0.09831624 -0.118378684 -0.019538024 -0.06773546 0.06404054 0.13908881
-0.007577471 -0.10322649 0.009684867 0.037865642 -0.036675163 -0.059826463 -0.050841846 -0.017196923
-0.026226318 -0.018925667 0.08881956 -0.017346386 -0.06499418 -0.042184934 0.06599104 -0.0179655
-0.022653572 -0.14089574 -0.07970418 0.039049752 -0.048214816 -0.032835044 0.04105319 0.028406978
0.010838423 -0.03603495 -0.073958606 -0.15231252 -0.09529809 -0.0040877024 0.01734337 -0.05855688
0.083011195 0.029319836 -0.05188692 -0.040455665 -0.02388085 -0.084020756 0.07596499 0.04075775
-0.054062862 0.027462099 0.05473302 0.04522846 0.00335026 0.06140559 0.110451594 0.08065381
0.029214935 -0.03984713 -0.118275225 0.0015933196 -0.053526726 0.0070945546 -0.04740731 0.036946826
-0.010742605 0.00060674537 0.05398588 0.10661724 -0.13386348 0.0988136 0.03451093 0.015822435
0.05476384 0.03382701 0.08866026 0.05727495 0.16797335 -0.2184392 -0.0020689412 0.009711878
0.030159157 0.008158278 0.07119287 0.008599517 -0.014774945 -0.13607015 -0.054926228 -0.03499407
-0.06668457 -0.015029314 0.024392214 -0.047266882 -0.07569456 0.031732034 -0.07388445 -0.049518596
-0.08082601 -0.10700431 0.008702541 -0.0026587406 -0.03729846 -0.0869024 -0.05598675 0.029621847
0.17096782 -0.009071724 -0.010568428 -0.010602959 -0.0027989242 -0.05748875 -0.047331274 -0.012604205
0.069466986 0.06674288 0.021706542 -0.013191428 0.030994572 0.055999283 -0.05163816 -0.10115826
0.0017179827 -0.01932256 -0.00063377246 -0.0347031 0.12150609 0.07739956 0.08681866 0.07072944
0.038087018 0.0292401 -0.034712426 0.09033604 0.07325852 0.016534245 -0.023958972 0.09133562
-0.0356693 -0.10706864 0.008908076 -0.05810729 0.07814179 -0.016710736 0.0040104967 0.020095292
00000000: 84e5 c2bc 0be2 6bbd 34f1 e2bc 8082 73bd
00000010: 9ea8 31bc 1dc4 053d 88f2 fd3c 2419 1bbc
00000020: a71e 5bbd 56ba 2c3e 1946 12bd 2a3a bd3d
00000030: 82aa 183d e95c 293d c895 af3c b062 a5bd
00000040: 12b7 aebc 8c62 8c3d 4266 0a3d ae4e 113b
00000050: 5a15 fc3c e53e 9b3d 0d64 733d 2568 443d
00000060: 8bb9 4ebd 4921 f53b 5d79 e83c d893 8cbc
00000070: fc9f 453d a463 963c 87a6 deb9 00b2 55bd
00000080: 7605 2bbd fa54 473d 1afd b2bc d9cf 893d
00000090: 039d cabc ba33 c3bd 2e1c 043d e71c 9d3c
000000a0: 282d 86bd dd37 fdbc 19c4 4a3b a7c6 cf3d
000000b0: 3c0b ba3d 48e4 bb3d 59ce 8f3a 1814 09bd
000000c0: abc8 533d 95ce 123d b83f 6b3d 9a09 a23d
000000d0: 438f d1bd 470e 253d f545 b13d 2d22 b33c
000000e0: 9743 4abc 4d1b 16bd 22d5 e03b 7f6c 883c
000000f0: b564 0d3d db65 92bd 6d06 edbb 2ef4 513d
00000100: 622a a73c a2cf 283d 6282 dbbc cc80 bebd
00000110: e4ea 043c 29df 513e f70d 043d f7c5 b33d
00000120: eeb3 c23d 8637 99bc 8f5f e7bd 5210 63bd
00000130: 0e5c c8bb 5e70 1bbe 8bcd 14be 42e8 44bd
00000140: b33a 45bd e071 7b3d 5eca ec3d 2e2a 3a3d
00000150: a08d e63d 90bf 4abc bbfd aa3c 6e75 d8bc
00000160: 5054 e33b bba4 60ba f20f b63d 842f a9bd
00000170: d992 423d 4a3f 7f3d 010b 22bb dcd2 eb3c
00000180: 9b79 843d 1e93 063d 5b14 a5bc b4a1 053c
00000190: 1387 e63d 4019 b23b 000a 243d a022 703c
000001a0: a9d3 6b3d 8d40 173d 8ed8 523d ca0d d93b
000001b0: 49ee 0e3d 2569 293d f584 633d 6138 c5bd
000001c0: c5b6 70bd d263 a73b 065a c9bd 8670 f2bd
000001d0: 350e a0bc e4b8 8abd b027 833d 4c6d 0e3e
000001e0: 6f4c f8bb 6968 d3bd 47ad 1e3c 0119 1b3d
000001f0: b238 16bd 980c 75bd 8a3f 50bd 90e0 8cbc
00000200: 93d8 d6bc 000a 9bbc 08e7 b53d 021a 8ebc
00000210: ab1b 85bd 1cca 2cbd 4f26 873d 622c 93bc
00000220: fc93 b9bc f946 10be f23b a3bd a2f2 1f3d
00000230: e67c 45bd 0a7e 06bd 6427 283d c0b5 e83c
00000240: a493 313c 6299 13bd 9c77 97bd d0f7 1bbe
00000250: a52b c3bd 22f2 85bb af13 8e3c 57d9 6fbd
00000260: c601 aa3d 2730 f03c 6187 54bd d7b4 25bd
00000270: c6a1 c3bc 1313 acbd 8893 9b3d 99f1 263d
00000280: 0571 5dbd 32f8 e03c bb2f 603d 7a41 393d
00000290: 0990 5b3b 6e84 7b3d 7234 e23d d32d a53d
000002a0: 2954 ef3c bf36 23bd 483a f2bd efd6 d03a
000002b0: d73e 5bbd 7079 e83b 2b2e 42bd 8e55 173d
000002c0: c001 30bc fe0d 1f3a 4c20 5d3d 245a da3d
000002d0: 8213 09be c95e ca3d 555b 0d3d 0d9e 813c
000002e0: 0c50 603d 318e 0a3d 8393 b53d 2399 6a3d
000002f0: 3501 2c3e 87ae 5fbe 1397 07bb 921e 1f3c
00000300: 5610 f73c 4caa 053c 91cd 913d fde4 0c3c
00000310: 9c12 72bc f955 0bbe 53fa 60bd f155 0fbd
00000320: eb91 88bd 833d 76bc 2ed2 c73c eb9a 41bd
00000330: c005 9bbd 73f9 013d bb50 97bd 03d4 4abd
00000340: 1b88 a5bd 1325 dbbd 1a95 0e3c 443e 2ebb
00000350: 45c6 18bd e3f9 b1bd 5d52 65bd 84a9 f23c
00000360: 3012 2f3e 91a1 14bc 3327 2dbc 09b8 2dbc
00000370: 286e 37bb 5379 6bbd 70de 41bd de81 4ebc
00000380: b544 8e3d 7eb0 883d ebd1 b13c dc20 58bc
00000390: 54e8 fd3c 815f 653d 8982 53bd 102c cfbd
000003a0: ef2d e13a 584a 9ebc c023 26ba d624 0ebd
000003b0: 2fd8 f83d a983 9e3d fbcd b13d 99da 903d
000003c0: 2201 1c3d ef88 ef3c 9e2e 0ebd 1a02 b93d
000003d0: 9008 963d d372 873c 9b45 c4bc 2b0e bb3d
000003e0: f919 12bd ce46 dbbd 2ef3 113c e901 6ebd
000003f0: ce08 a03d f4e4 88bc 7c6a 833b e29e a43c

fc1.bias f4 [50]
0.12809898 0.11359232 -0.13319758 0.05410852 -0.011946078 -0.0076368623 -0.0010054099 0.0063033868
-0.020050332 0.05779699 -0.1847406 0.07815612 0.095022984 0.08955474 -0.110811055 0.09398077
-0.011121327 0.17212053 -0.1220766 0.008732781 0.021610545 0.054778237 0.10023274 -0.094053484
-0.003086877 -0.0024641391 0.0967455 0.09127403 0.000248551 -0.00019650676 0.09413259 -0.12522727
0.21498898 0.006468383 -0.0110886 -0.0063535627 -0.028235534 0.068536684 -0.0093464935 0.15539412
-0.07354943 0.1142779 0.045313716 -0.0048043206 0.30838326 0.17719746 0.23454252 -0.15575798
-0.0032751688 0.10778504
00000000: 612c 033e 17a3 e83d f264 08be e5a0 5d3d
00000010: 7cb9 43bc a53e fabb f5c7 83ba a48c ce3b
00000020: 9840 a4bc 89bc 6c3d a42c 3dbe 5110 a03d
00000030: 699b c23d 7a68 b73d e8f0 e2bd fd78 c03d
00000040: 3a36 36bc 5d40 303e 4c03 fabd f013 0f3c
00000050: 9908 b13c 255f 603d d346 cd3d 1d9f c0bd
00000060: 344d 4abb 657d 21bb 8122 c63d e1ed ba3d
00000070: f34f 8239 620d 4eb9 96c8 c03d 943b 00be
00000080: 1226 5c3e bbf4 d33b f6ac 35bc 8c31 d0bb
00000090: 354e e7bc f65c 8c3d 0922 19bc a31f 1f3e
000000a0: 15a1 96bd 880a ea3d e09a 393d 906d 9dbb
000000b0: 69e4 9d3e 4073 353e ea2b 703e 057f 1fbe
000000c0: 37a4 56bb 67be dc3d

fc2.weight f4 [7, 50]
0.11576853 -0.2973648 -0.11389542 -0.076568745 -0.38317287 0.28241956 -0.005172387 -0.19644946
-0.016962256 0.0064606527 -0.102686115 0.032375507 0.23644857 -0.33380485 0.21701594 -0.336684
-0.011624751 0.19978407 -0.046894483 -0.2872102 0.27326128 -0.2820061 -0.21716161 -0.3780057
0.0005320634 -0.072088525 0.1400707 -0.028718058 -0.17664142 0.011944004 0.47838295 0.44850948
-0.25872627 0.16915804 0.13155317 -0.016831078 -0.25285837 -0.16450508 -0.01930032 -0.029343193
0.08881463 -0.11640153 0.463089 0.019934906 0.027197748 0.091321774 -0.012810389 0.14024293
-0.0010926726 -0.14981848 -0.06237152 0.19352749 -0.055573113 0.48317775 -0.23253858 0.5253521
0.009563487 -0.22534513 0.30788374 0.16093175 -0.24843065 -0.2513802 0.41944003 -0.42849323
0.081998855 -0.18939582 -0.017933616 -0.57007086 0.17605002 -0.017322376 -0.10159456 0.5722207
0.4864237 -0.19433877 -0.012342092 -0.6310928 0.027438812 -0.303583 0.3537056 0.00877663
0.3445095 -0.049406547 -0.47117996 0.10113072 0.29085314 0.010623793 -0.007732377 -0.10748037
0.026452128 -0.37310356 0.2090834 -0.56862754 0.061427455 0.013559912 -0.6080317 0.5723111
-0.6216853 -0.30743456 0.020401958 -0.033187907 -0.15687552 0.06318827 0.36532667 0.3036505
-0.04401576 -0.36057955 -0.016933827 0.23069432 -0.030687833 -0.2830225 0.3600086 0.3786167
0.034707714 -0.29585078 -0.2787209 -0.3790051 -0.024203567 -0.3960681 -0.031456187 0.17671448
0.06678694 -0.0695055 -0.06657839 0.057306353 0.00023038205 0.40080824 -0.42974856 -0.31387377
-0.21114828 0.019453702 -0.1585679 0.28262076 -0.17665099 0.25962925 -0.27757114 0.00063056085
0.21932179 -0.4710585 0.0075040227 0.22039515 -0.0020975834 -0.11277854 -0.109358475 -0.005604848
-0.12601836 -0.11594974 0.01790596 0.1177066 0.03894599 0.25320834 -0.3928322 -0.47056606
-0.031508185 -0.12608807 0.51519126 -0.09762021 -0.0014836704 -0.423906 -0.03615301 0.20551097
-0.060308866 -0.4251754 0.16794573 0.45053586 0.1466081 0.3325702 -0.017236657 0.034647208
-0.03787025 -0.17925699 -0.37062162 -0.27020326 0.42009515 0.0912487 -0.041752987 -0.3646406
-0.079446405 0.0074441195 0.44659352 -0.0041698026 -0.32916093 -0.23542409 0.13650486 -0.31744903
0.52910984 0.026663681 0.17053223 -0.091043815 0.009731976 -0.5580172 0.4855426 -0.03505691
-0.26934296 0.004317258 0.20129912 -0.0978618 0.29189652 0.09206766 -0.011149732 -0.57857054
-0.007759523 0.28282946 -0.41300023 0.20124537 -0.28905264 -0.3217737 0.016107028 0.14218973
-0.24672961 0.4292454 0.053328827 0.2146074 0.14300528 -0.35963753 -0.26033637 -0.1598336
-0.028744701 -0.01258209 -0.42396447 0.23157722 -0.14324711 0.3898645 0.162113 -0.19053449
0.0023136253 0.14935584 -0.26376355 0.34280995 0.111252345 -0.016141025 -0.15575296 -0.22235642
-0.12666133 -0.25932655 -0.30598995 0.022843976 0.0721248 0.25926715 -0.058953255 0.27726442
-0.42204052 0.19597298 0.029359646 -0.02272527 0.14272387 0.22059469 0.017267946 -0.3253583
-0.006787648 0.23644808 0.45180967 0.16314928 0.3397482 -0.29151452 0.007773066 0.21174824
00000000: 0d18 ed3d 3340 98be 0142 e9bd 13d0 9cbd
00000010: 3c2f c4be 4c99 903e 217d a9bb 0c2a 49be
00000020: 6ef4 8abc e2b3 d33b 194d d2bd 2e9c 043d
00000030: 931f 723e 78e8 aabe 6d39 5e3e d861 acbe
00000040: bd75 3ebc 3294 4c3e 6e14 40bd 370d 93be
00000050: e7e8 8b3e 1b63 90be 9d5f 5ebe f789 c1be
00000060: 2c7a 0b3a 26a3 93bd b26e 0f3e 2242 ebbc
00000070: 7de1 34be c9b0 433c 9cee f43e 09a3 e53e
00000080: c577 84be c437 2d3e e0b5 063e 54e1 89bc
00000090: a776 81be 0574 28be b41b 9ebc 2361 f0bc
000000a0: 72e4 b53d ed63 eebd 001a ed3e 874e a33c
000000b0: d0cd de3c e906 bb3d aae2 51bc d89b 0f3e
000000c0: 0238 8fba 046a 19be 4779 7fbd 122c 463e
000000d0: a2a0 63bd 1363 f73e 981e 6ebe 7a7d 063f
000000e0: 2cb0 1c3c e0c0 66be f0a2 9d3e 4bcb 243e
000000f0: 9b64 7ebe e8b4 80be d8c0 d63e 7763 dbbe
00000100: 04ef a73d faf0 41be 85e9 92bc 2af0 11bf
00000110: 7546 343e a8e7 8dbc cf10 d0bd 0e7d 123f
00000120: 870c f93e be00 47be 7c36 4abc 4c8f 21bf
00000130: 5cc7 e03c 3b6f 9bbe e718 b53e dbcb 0f3c
00000140: 8d63 b03e 855e 4abd 803e f1be 9f1d cf3d
00000150: b4ea 943e 6b0f 2e3c e15f fdbb ab1e dcbd
00000160: 22b2 d83c 6e07 bfbe f519 563e 9391 11bf
00000170: 5b9b 7b3d 652a 5e3c f7a7 1bbf fb82 123f
00000180: c526 1fbf 1068 9dbe 0222 a73c 0bf0 07bd
00000190: faa3 20be da68 813d 190c bb3e 1478 9b3e
000001a0: df49 34bd e29d b8be cfb8 8abc 223b 6c3e
000001b0: 0d65 fbbc 53e8 90be 0c53 b83e 0cda c13e
000001c0: ad29 0e3d c179 97be 81b4 8ebe f50c c2be
000001d0: 8f46 c6bc 70c9 cabe 34d8 00bd a4f4 343e
000001e0: 97c7 883d e658 8ebd 405a 88bd 11ba 6a3d
000001f0: b692 7139 bd36 cd3e 0108 dcbe 10b4 a0be
00000200: 4137 58be 5f5d 9f3c a05f 22be abb3 903e
00000210: ffe3 34be 20ee 843e ce1d 8ebe 394c 253a
00000220: e495 603e 942e f1be 4ee4 f53b 44af 613e
00000230: 9c77 09bb 6ff8 e6bd 56f7 dfbd dfa8 b7bb
00000240: f50a 01be 0f77 edbd 85af 923c 2810 f13d
00000250: d585 1f3d 86a4 813e 4d21 c9be 09ee f0be
00000260: ba0e 01bd 3b1d 01be 93e3 033f 1bed c7bd
00000270: b877 c2ba 350a d9be 2e15 14bd 7871 523e
00000280: 6e06 77bd 97b0 d9be f7f9 2b3e a3ac e63e
00000290: 6f20 163e a446 aa3e e433 8dbc 3bea 0d3d
000002a0: d61d 1bbd 258f 37be 1ec2 bdbe 1558 8abe
000002b0: b616 d73e 99e0 ba3d 2e05 2bbd 2cb2 babe
000002c0: ccb4 a2bd cded f33b e8a7 e43e d7a2 88bb
000002d0: c887 a8be 0313 71be eec7 0b3e ae88 a2be
000002e0: be73 073f cb6d da3c 00a0 2e3e 2e75 babd
000002f0: de72 1f3c 37da 0ebf 0a99 f83e d697 0fbd
00000300: 52e7 89be c977 8d3b 5b21 4e3e c46b c8bd
00000310: 7673 953e f88d bc3d 5ead 36bc 331d 14bf
00000320: 9943 febb 06cf 903e c474 d3be 4413 4e3e
00000330: b5fe 93be 86bf a4be e3f2 833c 2f9a 113e
00000340: b0a6 7cbe 0ec6 db3e 546f 5a3d 0bc2 5b3e
00000350: fa6f 123e 6922 b8be cf4a 85be 6bab 23be
00000360: 027a ebbc 1c25 4ebc df11 d9be 9422 6d3e
00000370: 5faf 12be 529c c73e f300 263e 791b 43be
00000380: 31a0 173b bdf0 183e 040c 87be c984 af3e
00000390: 45d8 e33d 2f3a 84bc b47d 1fbe 67b1 63be
000003a0: 82b3 01be 73c6 84be b7aa 9cbe 4a23 bb3c
000003b0: 2bb6 933d aabe 843e f878 71bd 9af5 8d3e
000003c0: b215 d8be 24ad 483e a483 f03c 582a babc
000003d0: 3526 123e 93e3 613e 8275 8d3c 5d95 a6be
000003e0: eb6a debb 721f 723e 9953 e73e 9b10 273e
000003f0: 7af3 ad3e 6441 95be 34b5 fe3b 88d4 583e

fc2.bias f4 [7]
0.08024774 -0.024236843 -0.18400964 -0.049150612 0.118846074 0.0640882 0.14738843
00000000: ed58 a43d 588c c6bc 066d 3cbe 2752 49bd
00000010: 9265 f33d ad40 833d feec 163e
